checkpoint.pth (torch_old, 28463 bytes, 6 tensors)

fc1.weight f4 [64, 37]
000000 b7 d3 d7 3d 58 1d ed 3d c0 e2 ca bd f5 0b cd bd
       0.10538428 0.115778625 -0.099065304 -0.10012046
000010 82 f5 2f bc e7 f3 21 3e 8d f1 3c bc a2 2b 43 3e
       -0.010739686 0.15815698 -0.0115322 0.19059613
000020 22 70 4d bd 3b 65 98 bd 7b cf 12 bd ac 9d 10 3c
       -0.050155766 -0.07441183 -0.0358424 0.008826654
000030 82 32 21 bd bc 78 80 bd 01 ae 64 bd a4 d1 26 3d
       -0.03935481 -0.06273028 -0.055830006 0.040727273
000040 37 ad f7 3d 02 88 e3 3d 5b 92 51 3d 7e 26 d3 3a
       0.12093585 0.11109926 0.051164966 0.0016109494
000050 4c 9d a3 3d 8a 0b 41 3e 75 25 62 3d c5 37 29 3e
       0.079889864 0.18852058 0.055211503 0.1652518
000060 f3 8d de bb 86 04 06 3d 2b 8b 69 3e b5 d5 96 bd
       -0.006791824 0.032719158 0.22806995 -0.0736498
000070 ee 30 48 bc 89 84 b9 bd f7 ca 58 3c 4f 66 32 3e
       -0.012218697 -0.09058482 0.013231984 0.1742184
000080 5e e6 3e bc 1a c5 b5 bd b5 45 7d bd 3e b9 f4 bd
       -0.0116516035 -0.08875485 -0.061834056 -0.11949395
000090 8f 5a b5 bd 2c 1e 66 3e 88 56 12 3e 28 d3 0a 3e
       -0.08855163 0.22472447 0.14290822 0.13557112
0000a0 c6 0c a7 3d 1a 9d 39 bd 24 e0 26 3e 9a c0 32 be
       0.08156733 -0.04531584 0.1629644 -0.17456284
0000b0 5c 4b 9b bd c1 c6 d5 bc b6 fb aa bb d8 bc 0c 3e
       -0.07582733 -0.02609575 -0.0052179946 0.13743913
0000c0 1c f0 f6 bb 30 a7 ab 3d 49 27 49 3e d0 34 1a 3e
       -0.0075359475 0.08381498 0.19643892 0.15059209
0000d0 50 12 24 3e 27 15 ae 3d 92 9b f3 3d 06 b8 55 3d
       0.1602261 0.08500128 0.11894907 0.05217745
0000e0 c4 13 1c 3d f6 89 11 bd 64 c0 10 bd 9d 5c c7 bc
       0.038104787 -0.03553196 -0.035339728 -0.024336154
0000f0 c9 a2 b6 3d b1 88 dc 3d 12 7a 69 3c 8e 19 f0 3d
       0.089177676 0.10768259 0.014250295 0.11723624
000100 89 8d ed 3d 8a 45 3d 3d b4 e0 ac bc 7b 56 c9 3d
       0.11599261 0.046208896 -0.02110324 0.09830948
000110 7b e4 41 3e 11 32 69 3e df a1 8e bd 9e c6 f1 3c
       0.18934815 0.22773005 -0.06964468 0.029513653
000120 39 b8 7f 3d 20 29 e0 3d 22 84 d1 bc 62 c0 2f 3e
       0.062431548 0.10945344 -0.025575701 0.17163232
000130 5f 7d 32 3e 2a 16 74 bd f4 db ae bd 16 57 b7 be
       0.17430638 -0.05959145 -0.085380465 -0.3580863
000140 b4 d3 24 3d b4 c7 82 3e 95 0d c3 3d 1d 3c 8d be
       0.04024096 0.25542986 0.09524075 -0.27584925
000150 1a d2 aa 3c 11 e5 d8 bc a5 24 0b bd c1 6c c3 3c
       0.020852137 -0.026476415 -0.033970494 0.023855569
000160 7c fd 86 3d d6 45 1e be d5 84 1b 3e 10 a8 c7 3d
       0.06591317 -0.15456328 0.1518739 0.09748852
000170 81 2d 78 3d 01 74 d3 3b e0 c6 a6 bd 68 c7 dd bc
       0.06059027 0.0064530377 -0.08143401 -0.027072623
000180 53 8f 9f 3d 07 d3 8e bc 60 d5 21 bc 03 d4 58 be
       0.07791009 -0.01743461 -0.009877533 -0.21174626
000190 b7 43 3e 3e 7c df 67 3e c8 22 b3 bd a8 55 27 be
       0.18580519 0.22643846 -0.08746868 -0.16341269
0001a0 84 c7 7d be 6c 18 0c 3d 4d 6c aa bc e8 c2 21 be
       -0.2478314 0.034202978 -0.020803595 -0.15797007
0001b0 e7 8d 57 bd d3 d2 fb bb 80 3b b6 bc 7e 72 12 3e
       -0.052625563 -0.0076850443 -0.022245169 0.14301488
0001c0 d8 1c 9f bc 04 4e 17 3e d2 81 07 3e 69 21 2f be
       -0.019422933 0.14775854 0.13233116 -0.17102589
0001d0 c9 50 86 bd d8 e0 f1 3c e7 64 c9 3d ec 74 d3 3d
       -0.06558377 0.02952616 0.09833699 0.103250355
0001e0 e0 35 22 3e ec ab 17 3d e4 3a 03 bd 9b c8 9e 3d
       0.15840864 0.03702919 -0.032038584 0.07753106
0001f0 e0 a7 81 bd de 46 b1 bd a0 cd da bc 59 58 2c bd
       -0.06330848 -0.08656095 -0.026709378 -0.042076442
000200 f5 f2 d4 bc 19 e5 a6 bd 2c af 4b bd 2b 5e f7 3d
       -0.025994757 -0.08149166 -0.049727604 0.12078508
000210 1b c6 95 bd 5e d9 0c bb c8 f8 93 3d 4e 42 c4 bd
       -0.07313176 -0.0021491866 0.07225186 -0.09582959
000220 b0 72 5c bd ea b0 8e 3d dd a3 96 3d e5 d8 44 3e
       -0.053820312 0.069673374 0.07355473 0.19223364
000230 75 fd 71 3e 55 84 2b 3e 41 05 4c 3e 47 f2 3f bd
       0.23631842 0.167497 0.19923879 -0.046861913
000240 52 3d e1 bd cb c6 89 be a5 fc 2d 3d cc 6f 14 3b
       -0.10998024 -0.2690948 0.04247727 0.0022649644
000250 d4 96 58 bd 8f 2e 25 be 5a ac 3d be 54 76 ec bd
       -0.052878216 -0.16131042 -0.18522778 -0.11546007
000260 5f 67 b4 3c 5e c4 20 3e 63 41 91 3d 9e 74 65 be
       0.022021947 0.15699908 0.0709255 -0.22407767
000270 dc 5b 80 bd a9 ec 54 be ed 1d 5d bd 08 9a d8 bd
       -0.06267521 -0.20793404 -0.053983618 -0.10576254
000280 b2 c8 3d 3c ff 25 cb bd e4 83 3a be 07 1b 20 be
       0.011583494 -0.099193566 -0.18214375 -0.1563531
000290 e6 bf 3f bd 1d dd 2c bd 67 b1 4f bc 39 ef 02 3e
       -0.046813868 -0.042203058 -0.012676573 0.12786569
0002a0 c5 85 14 be ad de f5 bd cf 4c 07 3e 52 01 e1 3c
       -0.14504154 -0.12005363 0.13212894 0.02746645
0002b0 18 9c 65 3e a9 bc 23 3d e1 24 ee bd ed 3a 68 3d
       0.22422826 0.039974842 -0.11628128 0.05669682
0002c0 f7 80 e1 bc fd 4e 90 3d dc 7e 87 3d d9 5b 2b be
       -0.027527316 0.07046316 0.066159934 -0.16734256
0002d0 30 19 72 3d 91 e0 10 3d e8 b8 c3 3e b5 bc ff 39
       0.059106052 0.035370413 0.3822701 0.00048777988
0002e0 30 fe 88 3d d2 9a a8 3d 4c 22 b1 bc 56 87 9b 3c
       0.066891074 0.08232655 -0.0216228 0.018985432
0002f0 35 7d 6b bd 2c 87 fb 3d 7c 88 7e 3e c8 78 b3 3d
       -0.057492454 0.12281641 0.24856752 0.087632716
000300 61 5e 88 be 7f 49 f5 3a d5 ce 1f bf e8 39 9c bd
       -0.26634505 0.001871392 -0.62424976 -0.07628232
000310 44 52 36 bd 0a a6 d7 3d 8f 82 4d bd 07 65 c4 3c
       -0.04451205 0.10529716 -0.05017334 0.023973955
000320 17 aa 2d 3c 2e bf 00 3e 4b c8 9c bd 23 f3 20 3d
       0.010599635 0.1257293 -0.0765539 0.039294373
000330 42 e3 31 bd ac 3c 0a 3e 13 29 07 3d d5 55 26 3e
       -0.04342962 0.13499707 0.032998156 0.1624368
000340 1c 07 af 3d a1 7b 0a 3e 57 88 d8 3c d9 be 05 bc
       0.08546278 0.13523723 0.0264322 -0.008163177
000350 cb 86 a4 3d 27 a2 84 3d 66 c7 5f 3d 0d 2b 87 3d
       0.08033522 0.064762406 0.05463352 0.06600008
000360 a6 c2 cf bd a5 e4 48 bd 5f 4f 42 3e d0 43 2c be
       -0.10144548 -0.049046177 0.1897559 -0.16822743
000370 4c fb d7 3b 38 12 1b 3e f6 e1 05 bd b4 90 2e bd
       0.006591236 0.15143669 -0.032686196 -0.04261847
000380 26 f6 04 be b8 e5 cf 3b d0 bd b2 bd 80 99 af bd
       -0.12984523 0.0063445233 -0.0872761 -0.085742
000390 95 1e 11 be 08 38 ad bd ef d1 56 bb 42 41 54 3e
       -0.14171822 -0.08457953 -0.0032778939 0.20728019
0003a0 08 5b 08 bc 7f 88 94 3d a6 40 85 3c 64 31 a7 bd
       -0.008322485 0.07252597 0.016266178 -0.081637174
0003b0 b4 09 15 3d c6 86 2d be b3 94 11 be 81 6c 29 bc
       0.036386207 -0.16945943 -0.1421688 -0.010340811
0003c0 d0 db a7 3d 73 ad b6 3d 53 38 5d bd ed 7a 90 bd
       0.08196223 0.089198016 -0.054008793 -0.07054696
0003d0 22 b1 04 bd 45 4b 21 be c4 60 28 3d b7 b1 14 be
       -0.03239549 -0.1575137 0.041107908 -0.14520918
0003e0 52 f9 e8 bd 7d 14 ae bd 1a 18 e2 bd 74 1a 4d 3d
       -0.11375679 -0.085000016 -0.11039753 0.050074056
0003f0 ab 58 5d 3c 66 5a bf bd 85 58 0d be 76 d2 82 bd
       0.01350991 -0.09343414 -0.13803299 -0.063877985

fc1.bias f4 [64]
000000 38 a6 71 3e 1b 8a d2 3d 0f 19 b2 bd 0b 7f 81 bc
       0.23598564 0.10280248 -0.08696186 -0.01580765
000010 ab 01 02 3e 40 72 c3 3c 5a 7e 17 be 32 de 12 3e
       0.12695949 0.02385819 -0.14794293 0.14342573
000020 02 38 f5 3d ab 3e cc bd 22 65 98 3e b6 de 51 3e
       0.11973573 -0.099728905 0.29764658 0.20495114
000030 c8 19 8e 3e 77 90 34 3e d8 02 61 3d f4 6d 44 3d
       0.27754045 0.17633234 0.054934353 0.047956422
000040 9d 5f 47 3e 9d 49 27 3d d7 af 17 3e d5 c5 43 be
       0.19470067 0.040841687 0.14813171 -0.19118436
000050 94 a1 03 be 16 42 26 3e 1f e6 f3 3d e5 13 72 bc
       -0.12854606 0.16236147 0.119091265 -0.014775251
000060 e7 a2 f1 bd 1e 90 5b 3e a4 d6 e7 bb 66 35 0e be
       -0.11798649 0.21441695 -0.0070751477 -0.13887557
000070 27 58 30 3e 10 e1 24 3e 0f 4a 26 bd b8 f2 38 be
       0.17221127 0.1610148 -0.04059797 -0.1806134
000080 5c d9 76 3e 3d 51 eb 3d c3 96 5e 3d 55 0e 20 3d
       0.24106354 0.11490104 0.054342996 0.039076168
000090 07 82 13 3e b2 70 b1 3d 4b d7 ce bc 71 55 d9 bd
       0.1440507 0.08664073 -0.025249144 -0.10612
0000a0 e0 1d 4c bd ac 3b 2b 3d f6 42 1f be bb 1a a3 3e
       -0.04983318 0.041804954 -0.15552887 0.3185633
0000b0 6b fc ea 3d 60 fa 34 bd 55 87 a2 3d f4 ba 2b be
       0.11473926 -0.04418409 0.07935969 -0.16770536
0000c0 24 53 16 be af 27 6a 3d a8 4d 84 bd 40 96 43 3d
       -0.14680153 0.05716675 -0.06460124 0.04775071
0000d0 fa e3 7a bb 2f 54 55 bd e5 45 23 be 96 3c 0b bb
       -0.0038282857 -0.052082237 -0.15944631 -0.0021245829
0000e0 a9 1a 06 3e 20 a4 ed 3c 84 23 ba bd e7 35 04 be
       0.13096108 0.029008925 -0.09088805 -0.12911187
0000f0 d0 c9 23 3e 25 d1 f6 3d 56 3d 2d 3d 03 df 8b 3d
       0.15994954 0.1205161 0.042294823 0.068296455

fc2.weight f4 [64, 64]
000000 9d ae 16 3d 67 48 92 3d 92 39 9f 3d b5 c3 e7 3d
       0.036787618 0.07142716 0.077746525 0.11316625
000010 f5 62 9b 3d b3 de 66 bd ac 7e 91 bd d9 d1 0b 3d
       0.07587234 -0.056364726 -0.07104239 0.034135673
000020 32 2f 86 3d 73 65 9f 3d c9 89 7d 3b 5f e5 25 bd
       0.065519705 0.07783022 0.0038686863 -0.04050195
000030 c9 c2 44 bd e8 17 2f 3e f2 12 90 bc 8c 32 b5 3b
       -0.048037324 0.17098963 -0.017587159 0.0055297073
000040 61 93 8a bc e8 3f 55 bd 7f 1e 62 3d ec 4f a4 3d
       -0.016915979 -0.0520629 0.055204865 0.080230564
000050 fc 35 76 bd 65 37 bd bc e3 c1 fc 3d f1 da 7a bc
       -0.060110077 -0.023097703 0.123416685 -0.015310989
000060 f7 cb b4 bd b3 fc 51 ba de ec 89 3e 0b 88 4f 3d
       -0.08827966 -0.00080103724 0.26938528 0.05066685
000070 f3 20 f7 3c 48 74 16 bd 49 b1 0d 3e 41 eb 9c bd
       0.030167079 -0.03673199 0.1383716 -0.076620586
000080 98 9f 03 3e f5 10 3d 3d d9 9e 2e 3d 23 32 2f 3b
       0.12853849 0.04615875 0.042631958 0.0026732765
000090 52 ae 3b bd fd ff 17 3e ef cd ed 3c d4 ef d5 bd
       -0.04582054 0.14843746 0.02902886 -0.10446134
0000a0 6b 59 c7 bd 82 e1 3f bc 6b be df 3c bf 2f d5 bc
       -0.09733852 -0.01171148 0.027312478 -0.026023744
0000b0 47 35 0a 3e e7 74 4c bd 48 57 a5 bd c6 3a 8a 3d
       0.13496886 -0.049916174 -0.08073288 0.067494914
0000c0 7b 9c bf bd 9d 68 74 bd 65 f6 c9 3b a0 7f 93 bc
       -0.09356018 -0.05967008 0.0061634057 -0.018005192
0000d0 5c 77 ea bd e5 62 b8 bd 7e db 41 3e 19 13 25 3b
       -0.11448547 -0.09003238 0.18931386 0.0025188385
0000e0 0d 01 ff bc fa 3a e5 bc 8c fd 38 be 30 3d 1a 3d
       -0.03112843 -0.027982224 -0.1806547 0.03765601
0000f0 2a 27 7e 3d b1 b4 29 3e f8 d3 f3 bd a0 af aa 3d
       0.06204907 0.16572835 -0.11905664 0.08334279
000100 80 2d e1 3d c1 6f dc 3d 82 ff 0d be 19 a7 48 3d
       0.109950066 0.10763503 -0.13867 0.04898748
000110 99 5e a3 3d 1d 66 c5 3d d9 7c dd bd aa bc 0d 3e
       0.079770274 0.09638617 -0.108148284 0.13841501
000120 d6 8e 7f bd 47 a6 c4 bd 7a 9a aa 3a 9d 27 16 3e
       -0.06239208 -0.096020274 0.0013016008 0.14663549
000130 ba b6 cb bc 4e 79 0f 3e 58 1f 66 bc 57 81 b0 3d
       -0.024867404 0.14011118 -0.014045559 0.086184196
000140 74 cb 13 3e a6 71 0c 3d c3 d4 39 bd 2f ab da bc
       0.1443308 0.03428807 -0.04536892 -0.026692955
000150 7b 34 21 3c 7c 89 94 bd 94 b9 dc 3d b9 ea 0a bd
       0.0098391725 -0.072527856 0.10777584 -0.033915255
000160 a3 1d 38 bc b9 51 f2 3d 65 a0 03 be bc d1 b2 be
       -0.011237535 0.118319936 -0.12854154 -0.3492564
000170 51 ea c7 3d f7 c0 96 bb 00 cd 0b bc b0 34 ad bd
       0.09761489 -0.00460064 -0.0085327625 -0.08457315
000180 63 fc 90 bd 4e f5 a3 3d 85 c8 b2 3d 23 3f 60 bd
       -0.07079389 0.080057725 0.08729652 -0.054747712
000190 39 dc 93 3d 24 9d 96 3d 48 2f 08 3e 92 c5 47 be
       0.072197385 0.07354191 0.13299286 -0.19508961
0001a0 23 5f 16 3c 1d a8 a2 3d b6 2a a4 bd ef e7 85 bd
       0.009177956 0.07942221 -0.08015959 -0.065383784
0001b0 9b bf 0d bd 52 f6 76 bd a8 2c 04 be 5d aa c1 bd
       -0.034606557 -0.060293503 -0.1290766 -0.09456322
0001c0 d3 35 00 be 44 ea c3 bd 66 9c f4 3b a0 70 b7 3d
       -0.12520532 -0.09566167 0.007464933 0.089570284
0001d0 29 69 cd bd f8 1b 44 3d 64 b7 66 bc 27 65 95 3c
       -0.10029823 0.047878236 -0.01408181 0.01823671
0001e0 ea 23 c3 bd b5 f3 06 3d 6c 3f 1e 3e 6f 9d 81 3d
       -0.095283344 0.03294726 0.15453881 0.06328856
0001f0 3f 36 f7 bd b0 61 72 3d 6e e2 b7 bd 1e 6e b0 bc
       -0.120708935 0.059175193 -0.08978735 -0.021536883
000200 7a 45 01 bd 6d 14 4f bd 34 4c ba 3c 83 9c 09 3d
       -0.0315604 -0.05055659 0.022741415 0.033596527
000210 a9 06 99 3c f8 97 4a 3d 89 f7 ec bd d6 c5 43 3d
       0.018679934 0.049461335 -0.11570651 0.047796093
000220 1b 58 df 3d 29 22 c2 bb 41 5c a2 3d 21 3b 74 3d
       0.10905477 -0.0059244824 0.07927752 0.059626702
000230 49 76 0a 3e 5c ab 54 3e 0f 93 bd 3d 16 e1 80 3c
       0.13521685 0.20768493 0.09256565 0.01573233
000240 38 4d 55 bd 10 c8 97 3d 61 68 ef 3d cb 01 c0 bd
       -0.052075595 0.07411206 0.116898306 -0.09375342
000250 20 4b fd bd 6a 06 11 3e 44 38 ee 3d 49 89 1e 3d
       -0.123678446 0.14162603 0.116318256 0.038705144
000260 b7 c9 ee ba 96 d8 12 3e 06 64 76 3e 67 2d 36 be
       -0.0018218075 0.14340433 0.24061593 -0.17790757
000270 ac 98 04 3d 5b 64 79 3e b6 1f 08 3d c8 73 e6 bc
       0.03237216 0.24354689 0.033233367 -0.02813138
000280 a4 40 b1 bd a8 bc bf bc 63 c8 58 bd 4f 52 b1 3d
       -0.08654907 -0.023405388 -0.05292548 0.08658277
000290 ac e1 50 3e ef 81 38 3e 3e fd 56 3e c1 bd 1b bd
       0.20398587 0.18018316 0.20995042 -0.03802276
0002a0 80 a2 52 3e 5d dd 99 bc 76 1c ba bd 39 e2 92 bc
       0.20569801 -0.018782312 -0.0908746 -0.017930137
0002b0 da ca 73 3d 1b b5 ce 3c e8 36 31 3d bb 1d d1 bd
       0.059519626 0.025232842 0.043265253 -0.10210749
0002c0 55 9c dc bc 18 7e 4e be bc 42 4a bd 24 4a e5 3c
       -0.026930014 -0.20165288 -0.04938005 0.027989455
0002d0 67 57 fa bd 4e 05 0d 3e bc 4c 67 be c0 07 76 bd
       -0.12223702 0.13771555 -0.22587866 -0.060065985
0002e0 59 7d 09 3c 9b b9 4f bd 6a e0 e6 3d 39 3e b7 3d
       0.008391702 -0.050714117 0.11273272 0.08947415
0002f0 43 70 03 bc e3 dd 43 3e d3 dc 39 3d 51 d6 2e 3e
       -0.008022371 0.19127612 0.04537661 0.17073943
000300 6a c7 b1 3c 34 dd d2 bd d3 bf 5f 3e a1 e8 31 be
       0.021701533 -0.102960974 0.21850519 -0.17373897
000310 d4 8e 4f 3b b2 e3 84 3c b6 f0 1e bd db 82 d9 bc
       0.0031670826 0.016221855 -0.03880378 -0.026551655
000320 18 b8 f3 bd 6d dd 73 3d 92 29 90 3c b0 0d be 3d
       -0.119003475 0.05953734 0.017597947 0.092799544
000330 0b 2f 66 bc 75 b4 d6 3d bd 8b a8 3d 48 66 64 bd
       -0.014049302 0.10483638 0.08229778 -0.055761606
000340 97 ee 14 3d d3 61 69 bc 03 8b 33 3d 87 4d 48 bd
       0.03636035 -0.0142445145 0.043833744 -0.04890206
000350 32 4b 8c 3d 48 64 b9 3d 96 88 da 3c 59 f5 17 3d
       0.0685028 0.0905233 0.026676457 0.037099216
000360 79 68 96 3d 21 7e 84 bd 59 88 e8 bd a5 88 41 3e
       0.07344145 -0.0646937 -0.11354131 0.18899782
000370 30 33 ff 3d bd 55 44 be 00 f3 8f 3d ae f8 03 bd
       0.12460935 -0.19173332 0.070287704 -0.03221958
000380 16 5f ed 3b 05 5b 10 bd b8 c7 c3 3d 49 7a e7 3d
       0.007244001 -0.035243053 0.09559578 0.11302621
000390 7c b1 70 bd ea 2a 39 3d 8a f5 c1 3d cc a1 bb bc
       -0.058763012 0.04520694 0.09470661 -0.0229043
0003a0 eb 5c 0d bc d3 06 92 3d c2 cf e8 bb 01 ad 5e bd
       -0.00862811 0.07130208 -0.007104845 -0.054364208
0003b0 c4 8b 2b 3c 41 5d dc 3a 4c 9f 3e 3d 77 0a 08 bc
       0.010470334 0.001681246 0.046538636 -0.008303276
0003c0 7e 96 a0 3c 35 ca e2 3d ed 5a 9d bd c7 d7 ca bb
       0.01960301 0.11073724 -0.07683358 -0.0061902734
0003d0 2d 92 c0 3d 7d 17 2c 3d fb a7 cf bd a3 6a b4 3d
       0.09402881 0.042014588 -0.101394616 0.08809402
0003e0 06 b5 c5 bd 26 57 a1 bd 4b 84 99 bd 5d d6 86 3d
       -0.09653668 -0.0787795 -0.07495936 0.06583855
0003f0 c3 53 fa bd 88 a1 a0 3c 53 4c fc bd 4c c4 c2 bd
       -0.122230075 0.019608274 -0.12319245 -0.09510097

fc2.bias f4 [64]
000000 28 21 91 3c 65 c1 39 bb 66 8a 31 3e c8 8b 88 3d
       0.017716005 -0.0028344032 0.17337951 0.06667286
000010 c2 80 58 3e 63 2c 18 be ee d9 32 bd aa 7c 34 3d
       0.21142867 -0.14860682 -0.043664865 0.0440642
000020 30 75 f9 3d 19 5f 5b 3e fa d0 63 bd 3a e3 37 3e
       0.12180555 0.21422996 -0.055619217 0.17957774
000030 1f 49 04 3e 52 78 84 bd 48 59 77 bd 64 91 9a 3d
       0.12918518 -0.06468262 -0.06038788 0.07547262
000040 1b 04 eb 3c 35 d6 0f bc a5 91 1f bd d3 bd 35 3e
       0.028688481 -0.008779098 -0.038957257 0.17748193
000050 f0 bd 3e 3e 78 58 8b 3e 0c b9 a9 bd ef 9a c1 bd
       0.18627143 0.27215934 -0.08287248 -0.09453379
000060 b8 45 b6 bd a8 1a b3 bd ed 62 a5 3d 9e d9 74 bd
       -0.089000165 -0.08745319 0.08075509 -0.05977785
000070 0d 8d f4 bc 9c bd 20 3e 7d 1f 97 3d 49 9e b2 3a
       -0.029852415 0.1569733 0.07379053 0.0013627495
000080 91 40 1f bc a0 a1 f4 3d 29 d7 f9 3d 8b 9b 0c bd
       -0.009719984 0.1194489 0.12199242 -0.034328025
000090 07 73 2a bd 9d de 01 be b4 b6 56 3e 00 36 8f 3c
       -0.041613605 -0.12682576 0.20968133 0.017481804
0000a0 a1 81 7f bd 83 9d 8c 3e e0 27 23 3e 18 79 1a bd
       -0.062379483 0.27463922 0.1593318 -0.03771314
0000b0 55 7f fb 3d a8 0e 90 bd 4d b8 95 3d ba 50 0b be
       0.12280146 -0.070340455 0.07310543 -0.13605013
0000c0 d3 62 9c 3d a7 c9 c1 bd 90 0a 03 bd 6a 4a 60 3e
       0.07636037 -0.0946229 -0.031992495 0.21903387
0000d0 f2 1f 4d bd 77 28 73 bd dd ec 1c 3e 2d 26 93 bd
       -0.050079294 -0.059364762 0.15324731 -0.07185016
0000e0 21 a7 42 be 04 87 0a be f6 db 2b 3d 95 10 88 bc
       -0.19009067 -0.13528067 0.041957818 -0.01660947
0000f0 7c d5 5b 3d b3 be 27 3e 1c 09 c1 3d 39 3d b6 bd
       0.05367039 0.1638134 0.094255656 -0.08898396

fc3.weight f4 [4, 64]
000000 f5 60 3e 3d 38 cd 6a 3e 30 06 1d 3e 38 3f a0 bc
       0.046479184 0.22929847 0.15334392 -0.019561395
000010 3a ec 14 3e aa ab f0 bd ce 6f 0e 3e ee ee 9c bd
       0.14543238 -0.11751492 0.13909838 -0.0766276
000020 26 49 dc 3d d7 27 30 3d 35 16 ea bd 3b 38 96 3e
       0.107561395 0.043006744 -0.11430017 0.29339775
000030 0f 5f 92 3c f2 12 fe 3c 30 50 1c bd 0d 3b 1f 3d
       0.017867593 0.031014893 -0.03816241 0.038874675
000040 8c 80 38 bb b9 5d 52 3e dc df e9 3d b6 71 14 3e
       -0.0028152792 0.20543565 0.11419651 0.14496502
000050 e8 09 b9 3d fe 26 86 3d 97 3b 5a 3d 3f 38 0d bd
       0.090350926 0.06550406 0.053279486 -0.03447747
000060 5f f4 f5 bd e2 59 ae bd e7 80 cc bd b6 d1 1a be
       -0.12009501 -0.085132375 -0.09985524 -0.15119061
000070 9d cb 4a bd 1f f2 28 3d 2c e4 bf bd 22 f1 1c 3e
       -0.049510587 0.04124653 -0.09369692 0.1532636
000080 75 f1 19 3e c9 ba 3c 3e 7e c5 bb 3d a7 d5 a0 bd
       0.15033515 0.18430628 0.09168528 -0.07853251
000090 58 49 13 3e 74 be ff bd 37 ad b5 3d a0 36 0b 3e
       0.14383447 -0.12487498 0.08870929 0.13595057
0000a0 da 85 52 3e d6 ea 94 3d 05 3a 86 3d 1f 1a 98 3d
       0.20558873 0.07271354 0.06554035 0.07426857
0000b0 5c aa c5 3d 5b f2 35 bb a6 d3 17 3e d5 c6 c6 3d
       0.09651634 -0.0027762863 0.14826831 0.09705893
0000c0 c6 de 97 bd 24 59 5b 3e 71 87 7b 3d a0 58 97 3d
       -0.074155375 0.21420723 0.061408464 0.07389951
0000d0 3b 9d 6a 3e 1a b9 0e be 15 36 bf 3d fe 30 24 bd
       0.22911541 -0.13937798 0.09336487 -0.040085785
0000e0 fd 74 d0 bd 63 d7 72 bd 3d 77 e8 3e ed f1 ce 3d
       -0.10178564 -0.05928744 0.45403472 0.101047374
0000f0 1d 73 c8 bd f6 ba 2a 3e 4d e8 d6 3d 9d 0f 82 3e
       -0.09787581 0.16672882 0.104935266 0.25402537
000100 e2 9e 47 3e 26 1e 78 3d 02 ea 54 3e f5 72 69 3d
       0.19494203 0.060575627 0.20792392 0.056994397
000110 af 12 c0 3d 7c 5f 61 bd 70 d8 01 3e ae 28 e6 bb
       0.093785636 -0.0550227 0.1268022 -0.0070238924
000120 4b 52 8f bc 21 c1 ad 3d e1 5d 86 3d 3b 2f 34 3e
       -0.017495295 0.08484102 0.06560875 0.17596142
000130 bc f9 0e bd b1 01 4c bc 60 de a5 bc d4 84 b2 3d
       -0.034906134 -0.012451575 -0.020247638 0.08716741
000140 29 b8 12 bb 3d 7f 28 3e e9 22 b8 3d 3b 3c b1 3d
       -0.00223876 0.16454788 0.089910336 0.08654066
000150 9f 56 0d 3e 7f 71 2f 3e 05 3c e9 bb 24 53 cd 3d
       0.13802575 0.17133139 -0.0071177506 0.100256234
000160 a8 11 2b 3d eb 20 cd bd de 00 6f 3d d8 93 db bc
       0.041764885 -0.10016044 0.058350436 -0.026803896
000170 4e a8 8a bd 49 c4 1d 3e f7 63 a5 3d ed 8d 1a 3e
       -0.06770383 0.15406908 0.080757074 0.15093203
000180 ba 07 02 3e 68 65 d6 3c 2c ea 4d 3e 80 36 9f bd
       0.1269826 0.026171401 0.2010886 -0.07774067
000190 ad 31 8f 3d f5 67 88 bd a5 d1 31 3e 43 0d f1 3d
       0.06991897 -0.06660453 0.1736513 0.117701076
0001a0 7b 09 f6 3d 6a 01 0d 3e 66 34 55 bc 20 77 af 3d
       0.12013527 0.1377007 -0.013012981 0.08567643
0001b0 5c 8e 9f bc fe 1f 7c bd 58 6a 16 3e aa de 8f bd
       -0.019477062 -0.061553948 0.14689004 -0.07024892
0001c0 a1 a8 a8 3c 9c c5 ea 3d 4d 0c f9 3d 1e d1 8e 3c
       0.020588221 0.11463472 0.12160549 0.0174337
0001d0 d6 73 20 3e 0f 67 fe 3c ee 82 b5 3d 96 51 3c 3d
       0.15669188 0.031055002 0.088628635 0.045976244
0001e0 78 c1 9b bd 37 eb c9 bd e5 04 3e 3e 11 90 86 bd
       -0.076052606 -0.09859317 0.18556555 -0.06570447
0001f0 7b 2a a7 bd cb b7 8a bc 81 12 9b bd dd 18 09 3e
       -0.081623994 -0.016933342 -0.07571889 0.13388391
000200 f8 16 cf bb b2 6e 02 3e c1 3f 54 3e 84 24 c9 3d
       -0.0063198768 0.1273754 0.20727445 0.09821418
000210 3f b4 34 3e 6e fc de bc 99 22 bb 3e 37 55 bf 3c
       0.17646883 -0.027219977 0.36549833 0.023356063
000220 e6 f1 03 3d a3 d6 a4 3d b9 e3 cd bd 8c 12 2f 3e
       0.032213114 0.08048751 -0.100532 0.17096919
000230 4c 9d 49 3e 88 d4 2b be 66 5c 98 bd 5e 04 12 3e
       0.1968891 -0.16780293 -0.074394986 0.14259478
000240 ff 57 ff 3d 4f d6 45 3c 40 9d 53 be d2 c3 f8 3c
       0.12467956 0.012075021 -0.20665455 0.030366812
000250 73 43 11 3d 18 c2 3b 3e 24 7a d3 bd 6d c8 4c 3c
       0.035464715 0.1833576 -0.10326031 0.012498957
000260 72 98 08 3e 7e a2 07 be a0 b7 c2 3c e1 47 08 be
       0.13339403 -0.1324558 0.0237692 -0.1330867
000270 91 3d 12 3e da 21 23 3e e3 02 62 3d 2a 17 9e bc
       0.14281298 0.15930882 0.055178534 -0.019298155
000280 16 73 3b 3d be 22 fe bb 60 d7 2d 3e 58 ef 02 3e
       0.04576405 -0.0077556064 0.1697669 0.12786615
000290 00 be 1a 3d e3 7d 2b be 76 7a db 3d 06 7f 07 3e
       0.037778854 -0.1674724 0.10716717 0.1323205
0002a0 c5 39 33 3e 46 d3 f0 3d dc 85 1c 3e b3 cd f8 bb
       0.17502506 0.11759047 0.15285438 -0.0075928806
0002b0 ca 71 63 3d dc f5 51 bd a4 f3 09 3e da e4 ac 3d
       0.05552844 -0.05125986 0.13471848 0.084420875
0002c0 f3 04 43 3e cb 5e 02 3d ea 45 84 3d 8e 63 4a 3e
       0.19044857 0.031828683 0.064586475 0.1976454
0002d0 a8 08 0e bd e4 b0 85 3d a3 1a 80 3d 83 6e 96 3d
       -0.034676224 0.0652788 0.062550806 0.07345297
0002e0 83 54 8b bd 39 c7 51 bd 0c ae f6 3d b7 95 3a 3d
       -0.06803229 -0.051215384 0.120449156 0.045552935
0002f0 d2 c0 2e be f8 72 e5 3d 38 01 9a bd 51 69 5f 3d
       -0.17065743 0.11203569 -0.07519764 0.054543797
000300 6a d3 37 3e db d7 1d 3e f6 7f d5 3d a0 de 79 be
       0.17951742 0.15414374 0.10424797 -0.24401331
000310 63 f6 0a 3b bf c0 96 bc 0c dc 30 bb 7f 6e 8d 3d
       0.0021203987 -0.018402455 -0.0026986627 0.06905841
000320 74 20 00 3e ba a8 2e 3e e4 3d 0b 3e 99 0b 0e bb
       0.1251238 0.17056552 0.13597828 -0.0021674393
000330 b9 9f 0c 3e 68 70 29 bc 00 be 72 3d 56 63 e3 ba
       0.13732804 -0.010341741 0.05926323 -0.001734833
000340 6d 75 79 3e eb 47 36 3e 91 8b 7d 3c ce e4 18 3e
       0.243612 0.17800872 0.01547517 0.14931032
000350 5d e1 24 3d 34 35 1a 3e 6c 8b e1 bc e1 51 70 3d
       0.040253986 0.15059358 -0.027532302 0.058671836
000360 bc ab 8b 3d e9 fa 0e be a1 0e a7 3b f1 c4 a7 3d
       0.06819865 -0.13962902 0.0050981794 0.081918605
000370 7a 91 d0 3d bf 83 fc bc fc fe a0 bd 29 8d 08 3e
       0.101839975 -0.03082454 -0.078611344 0.13335098
000380 19 0c 89 3e a4 c0 a2 3d 62 66 aa bc e4 5f 58 bd
       0.26767042 0.079468995 -0.020800773 -0.052825823
000390 4d b9 60 3b a4 87 c3 bc 7a b4 27 3e 36 7e 12 3e
       0.0034290135 -0.02386839 0.1637744 0.14305958
0003a0 1a 8e 4e 3d 79 29 2d 3e 66 0d 41 3e 62 27 13 be
       0.050428487 0.16910352 0.18852767 -0.14370492
0003b0 fc a3 2e 3e a1 7d 09 be 77 67 d7 3d f9 d6 4d bb
       0.17054743 -0.1342683 0.10517781 -0.0031408651
0003c0 93 f0 f5 3c 2d b6 da 3b 54 47 46 3e 32 df 92 3d
       0.030021941 0.006674549 0.19363147 0.071714774
0003d0 20 77 76 bd db 1d e3 39 94 32 d4 3d ab 57 80 3e
       -0.0601722 0.00043319058 0.103612095 0.25066885
0003e0 06 2d 54 bd 9a 6f 16 be 7d 1e d8 3d fe 64 a1 bd
       -0.05180075 -0.1469101 0.1055269 -0.07880591
0003f0 c4 ff 8f bd c5 cc eb 3c 32 98 31 3b c6 2f dd 3c
       -0.07031205 0.028784165 0.0027098772 0.02700032

fc3.bias f4 [4]
000000 f8 94 06 3e 04 bb 39 3e fc f7 d1 bb ad 90 08 ba
       0.13142765 0.18137747 -0.006407736 -0.00052095467
